saved_models/LeNet_300_100.fashionMNIST.OURS.l2-norm.0.5.pth.tar (torch, 505567 bytes, 6 tensors)

ip1.weight f4 [150, 784]
000000 b2 20 0e 3c e5 6d 00 bc a5 3d 76 bb fb 9a eb 3b
       0.008674787 -0.007838701 -0.0037573364 0.007190106
000010 5c d7 92 bc 39 63 19 3c b5 9f c2 bb 94 e4 3b 3b
       -0.017924957 0.009362035 -0.0059394487 0.0028670179
000020 05 0f 8a bb f4 49 63 bb 18 16 67 3b aa 00 02 bb
       -0.0042132162 -0.003468153 0.0035260972 -0.0019836822
000030 68 9d 87 3b f9 72 7b bb 62 c9 85 3a 31 dd c0 ba
       0.0041386373 -0.003836809 0.0010207111 -0.0014714358
000040 04 a6 86 3b 53 6a b4 ba b1 3c 6d 3c ff 7a 9c 3b
       0.004109146 -0.0013764597 0.014479802 0.0047754045
000050 74 da 23 bc b9 49 3c bc e7 45 7b bb 22 52 25 bc
       -0.010000814 -0.011492186 -0.0038341226 -0.010090383
000060 52 a9 ed bb 7a f3 7f 39 36 c4 26 3c b5 ff 15 3c
       -0.0072528506 0.00024409397 0.010178616 0.009155204
000070 6d eb 8b bc a4 13 2a 3c 0c fc 8a 3b 0a ab 6f 3c
       -0.017080033 0.010380659 0.004241472 0.014628181
000080 e4 e6 0d 3c 8f 2d b5 bc 2f bb e9 bc d6 45 8c bc
       0.008661006 -0.02211645 -0.028531639 -0.017123144
000090 6f e8 1f 3c 3a 9c 07 bc 84 87 56 bb ac 37 83 bc
       0.009760006 -0.008276993 -0.0032734582 -0.016017757
0000a0 a3 77 1f 3c 5d a7 55 bc 50 50 db 3b 84 bf 01 bc
       0.009733113 -0.013040391 0.0066929236 -0.007919196
0000b0 0d f0 4a bc e2 9c 7b 3b 60 f0 76 bc 7f 83 6c 3b
       -0.012386334 0.003839307 -0.015071958 0.003608912
0000c0 81 80 1a bc a2 66 0f bc 7a 9b 95 bc 5a f7 0c bc
       -0.009430052 -0.008752497 -0.018262614 -0.008603895
0000d0 32 bd a7 3b 17 b5 bb bb 98 53 8a 3c c3 0b 5e 3c
       0.0051189894 -0.0057283747 0.016885564 0.013552609
0000e0 8e a2 ba ba d0 02 5a bc ea 1e 1c 3c c5 4c bb 3b
       -0.0014239119 -0.013306335 0.009528855 0.0057159388
0000f0 a6 76 5a bc 50 db 88 3b d9 d0 01 3c 0e 78 72 3c
       -0.013333952 0.0041765347 0.007923328 0.014799131
000100 4f 9d fb bb f7 6f 8b 3b 00 0f a1 3b 75 f3 fd 3a
       -0.0076786648 0.0042552906 0.004915118 0.0019374924
000110 4a 09 a4 bc c4 0c 65 bc 07 df 1a 3c 15 88 35 bc
       -0.02002396 -0.013980094 0.009452588 -0.011079808
000120 ce cb d3 3b 96 1e 71 3b eb 50 4c 3c cb 30 54 3b
       0.0064635044 0.0036791912 0.012470464 0.0032377716
000130 65 bd ce 3b 89 9e a6 3b 77 4d a5 bc a0 b3 6f 3c
       0.0063091987 0.005084817 -0.02017854 0.014630228
000140 4a d5 3e bc 96 8b 88 bc 28 66 0e ba 53 a5 70 bb
       -0.011647532 -0.016668122 -0.00054320926 -0.0036719635
000150 f3 20 15 3c ab 68 4b bc 9f 18 8e bc c6 1f 83 3c
       0.009102094 -0.0124150915 -0.017345725 0.016006362
000160 2b 88 a1 ba 64 e2 f4 3b 52 37 1b 3c bb 72 83 bb
       -0.0012323906 0.007473277 0.009473639 -0.0040114797
000170 bb 12 57 3c c1 fd 4f 3c 24 65 ca 3a 32 e1 c3 39
       0.013127024 0.012694777 0.0015441519 0.00037361082
000180 78 73 50 3c 95 9e 1f 3c 8e ae b4 bb 2f 21 7c ba
       0.012722842 0.009742399 -0.0055139726 -0.0009617982
000190 dd f5 ad 3c 70 bf 9a 3b bd a8 bb 3c fb 66 6b 3c
       0.0212354 0.004722528 0.02290761 0.014367814
0001a0 f9 ed f2 bb ba 16 2a bc 8c c6 76 3c f9 55 da 3b
       -0.0074136225 -0.010381395 0.015061986 0.006663081
0001b0 0f a6 8a 3c 9d e6 07 ba 82 8c 11 3b 78 d8 39 3c
       0.016924886 -0.00051842054 0.0022208993 0.011343114
0001c0 2a 8e 80 3c c5 96 6d bc fb b4 69 ba fb e1 b0 3c
       0.01569279 -0.014501278 -0.0008915213 0.02159213
0001d0 db 74 90 3c d2 af 3e 3c 2c 7c 6f bb a3 f3 a3 bb
       0.017633846 0.0116385985 -0.0036542518 -0.005003409
0001e0 66 d9 5a bb 5d df fd 3b 6d 6e e3 3c 16 15 20 bb
       -0.003339374 0.0077475742 0.027762616 -0.002442663
0001f0 f6 d1 97 3c 5b 88 d3 3a 03 6f d1 bb 34 a8 e5 3b
       0.018532734 0.001613866 -0.0063914075 0.0070085768
000200 ea 88 9c 3c af 8d b6 3c 93 e6 ac bb 25 72 0c 3c
       0.019108254 0.022284357 -0.00527651 0.008572136
000210 42 c5 a1 3c 3e ec 64 3c ff ef 32 3c 4e b3 9b 3c
       0.01974738 0.01397234 0.010921477 0.019006398
000220 47 7b ca 3c 48 08 b5 3a 3e a5 84 bc ed 38 82 bc
       0.024716986 0.0013811672 -0.016192075 -0.015896285
000230 fa 4e 13 bc e3 cb bb bb 4d 25 19 bc dc d0 62 3c
       -0.008990997 -0.0057310923 -0.009347272 0.013843741
000240 be a0 f6 3b 17 ad 99 ba 09 b1 44 3c 5c 2d ee 3b
       0.007526486 -0.0011724558 0.012005099 0.007268591
000250 8f 34 52 3c c6 13 66 3c 62 d7 de b9 9e 88 b2 3c
       0.012829914 0.0140428 -0.00042503612 0.02179366
000260 a8 2a 1e 3b 3c c0 9a 3b 50 0e 64 bc 51 c0 c0 bb
       0.0024134312 0.004722623 -0.013919428 -0.005882301
000270 4c d7 95 bb d4 aa 0e bc 22 13 53 3c e5 21 55 bb
       -0.0045727845 -0.008707721 0.01288298 -0.0032521423
000280 02 2a 5f bc 67 16 ed 3b 84 c4 09 3c 14 e3 7d 3c
       -0.013620855 0.0072353366 0.008408669 0.015496034
000290 94 90 d4 3b e4 10 ad 3b 80 fe 44 bc 54 f4 b1 bb
       0.0064869616 0.0052815545 -0.012023568 -0.0054307375
0002a0 62 51 6e bc 8b 48 48 bc 36 f9 25 bb 24 b5 58 3c
       -0.01454577 -0.012224327 -0.0025325543 0.013226781
0002b0 aa a9 ff 3b 72 08 25 3c 9b a8 c0 3c f7 84 96 3c
       0.007802208 0.010072814 0.023517897 0.01837395
0002c0 89 22 3e 3c 85 92 d2 ba 95 d4 27 bc aa 6e 85 3c
       0.0116049135 -0.0016065395 -0.010243555 0.01628812
0002d0 24 b0 14 bb 42 bc 2a 3b f4 1b 78 bc ed f9 9c ba
       -0.0022687996 0.0026052152 -0.015143383 -0.0011976339
0002e0 90 f6 3f bc 06 52 37 3c 6f 1a 82 bc 57 7f 5c bc
       -0.0117165 0.0111889895 -0.015881745 -0.013458095
0002f0 4e a1 40 bb ae da 2e bc 52 66 1f 3c 17 bf 33 bb
       -0.002939302 -0.0106722545 0.009728985 -0.002742713
000300 27 c2 24 ba 53 24 8a 3b 68 ae 04 3c 9f b9 63 bc
       -0.00062850345 0.004215756 0.008098222 -0.013899236
000310 03 51 d9 3b 53 f2 1c 3c 14 8d a4 3c 04 e5 0e bb
       0.006631972 0.009579259 0.020086803 -0.0021803984
000320 73 e2 f4 3b 9e 49 87 bb 98 fa 99 3c 81 fb de bb
       0.007473284 -0.004128649 0.01879625 -0.006804884
000330 02 d7 52 3c a1 32 3a 3a 26 8a b5 b8 d0 57 05 39
       0.012868645 0.0007102881 -8.656485e-05 0.00012716581
000340 5f 17 b3 3b 23 8e 1c 3c 87 b3 a1 3b 3a 06 d8 3b
       0.0054654325 0.009555372 0.0049347314 0.006592539
000350 48 43 94 bc 8e 5e 44 3c 60 7d 8d 3c b5 38 8e 3c
       -0.018098488 0.011985434 0.017271698 0.017361024
000360 10 80 3d 3c 06 43 93 bc ce f9 0c bb 96 a3 9f 3c
       0.011566177 -0.017976295 -0.00215112 0.019487184
000370 fb ee b9 bb 65 91 bb 3c b0 13 8a bc 60 b5 5a bc
       -0.0056742406 0.022896478 -0.01685509 -0.013348907
000380 e1 58 f9 3b bd e9 63 bc 97 23 d0 b9 3f 42 b5 3c
       0.007609472 -0.013910708 -0.00039699368 0.022126315
000390 93 15 7b 3c 06 bb b4 3c c1 21 0c 3a 60 4e 85 bc
       0.015324968 0.022061836 0.0005345606 -0.016272724
0003a0 20 0b 8b 3c 8c 72 dd bb ed 7d 3a bb cb 8e c0 3a
       0.016973078 -0.00675804 -0.0028456405 0.0014690993
0003b0 a3 f0 76 bc ab d7 10 3c 13 77 50 3c 06 df 6a bc
       -0.015072021 0.008840482 0.012723702 -0.0143353995
0003c0 6b 92 62 bc 5a a1 99 bb dd 04 67 3b fe 0c 4d ba
       -0.013828854 -0.004688424 0.0035250701 -0.00078220654
0003d0 71 22 08 bc 7f 32 c3 ba 3f a1 79 bc 05 4e d9 bb
       -0.008308993 -0.0014892368 -0.015236198 -0.006631615
0003e0 cb 91 bf bb a5 fa c4 3c d8 d4 4d 3c 2b 52 d9 bb
       -0.0058462373 0.024045298 0.012562953 -0.0066321096
0003f0 f2 7c a1 ba 3d 24 f1 3b 3b 3a 90 3b 38 bb 82 3b
       -0.0012320562 0.0073590563 0.004401473 0.0039896034

ip1.bias f4 [150]
000000 e5 6d 00 bc e9 98 25 3b e5 e1 9e 3d 2a 51 0d 3d
       -0.007838701 0.0025268144 0.0775793 0.034501232
000010 ea 9f 26 3d aa bd ea 3a f2 41 02 3d 2f bc 2f 3c
       0.04067985 0.0017909307 0.03180117 0.010726019
000020 13 29 9c bc f2 ec 5c bc 38 99 45 3c a7 0b 6a 3b
       -0.019062554 -0.013484227 0.012060456 0.0035712512
000030 6f 1b 36 3d db be ea 3b 24 81 51 3c 7c e8 6c 3d
       0.044459756 0.007163865 0.012787137 0.057838902
000040 02 0f 45 3c 23 74 23 3d 87 ec ec 3b 39 57 53 3c
       0.012027504 0.03990568 0.0072303447 0.0128992135
000050 a1 2b e1 bb 1a ae 23 3d f3 7d bb bd ef 57 51 3c
       -0.006871656 0.039960958 -0.09154882 0.012777313
000060 a0 d9 16 bd 24 7c b8 3c c0 25 f0 3c e1 a6 4f bc
       -0.036828637 0.022520132 0.029314876 -0.012674064
000070 06 a1 93 3b f0 17 8e 3c 9d 6b e8 3c d5 14 42 3c
       0.0045052795 0.017345399 0.028371627 0.011845787
000080 7f 3e 17 3d a5 0b 3f 3d 3e ae 89 3d dd 9d 5c 3c
       0.036924835 0.046641964 0.06722687 0.013465372
000090 aa 55 75 3b 92 bd bd 3c 17 fb 21 3c 56 ec a5 3d
       0.0037435093 0.023161683 0.009886525 0.08101718
0000a0 ac 9b 10 bc 7f b6 81 bc 4e 57 1f 3d db d9 80 bc
       -0.008826178 -0.015834091 0.03890162 -0.015728882
0000b0 38 82 80 3d 08 de 85 3d 6a 3e 1e 3d 3b 3a ec 3b
       0.06274837 0.0653649 0.03863374 0.00720909
0000c0 82 69 0d 3d 3e 92 06 bc a2 67 c2 3c 96 59 0c bd
       0.03452445 -0.008213578 0.023731057 -0.034265123
0000d0 c7 f8 8e 3d 5b 20 a4 3b 6a 2d c1 3c 48 89 bc 3c
       0.06981044 0.00500874 0.023581225 0.02301468
0000e0 c5 65 f9 bb 06 cc 80 3c 8e 8b 00 bd a3 08 00 bc
       -0.007611009 0.015722286 -0.03138309 -0.007814559
0000f0 6d 9a f5 3b 51 e4 8d 3c c0 2a 56 3c da c2 bb 3d
       0.0074952156 0.017320784 0.013071716 0.09168024
000100 a2 62 85 bc e5 4f 5d 3d 0b 62 e3 3c 4c b8 c3 bd
       -0.016282383 0.05403127 0.027756711 -0.09556636
000110 53 8c aa 3c 23 bc 07 3d 18 70 15 3d ba ed 7d 3d
       0.020818865 0.033138406 0.036483854 0.06199429
000120 40 27 4a bd 46 e9 19 bd fc 90 94 3d 94 3e 4e 3a
       -0.049353838 -0.037575983 0.07254216 0.0007867601
000130 34 a4 0b b8 7c 5b 67 3d b3 62 c6 3d 0e e9 1c 3d
       -3.329311e-05 0.05648373 0.09686794 0.038308196
000140 70 b4 8f 3c 79 99 56 3d 41 fe a4 3c ed df bb 3d
       0.017542094 0.052392457 0.020140769 0.0917357
000150 eb 2c 8b bc 4d 8f c5 3c 51 28 8b 3b 28 5a 08 3b
       -0.016989192 0.024116183 0.0042467494 0.002080569
000160 a0 e4 b8 3c ca 6e c4 3c 05 a4 04 3c 18 fe 2d 3c
       0.022569954 0.02397861 0.008095746 0.010619663
000170 70 66 05 3d b6 2f db b9 31 c1 3d bd 8d cf 3f bc
       0.032568395 -0.00041806482 -0.04632682 -0.011707199
000180 ce fe 0a 3c 95 99 18 3d da 30 92 3c 06 8c c7 3c
       0.008483602 0.037255842 0.01784556 0.02435876
000190 65 bd d3 3c 46 90 ea 3c c5 52 a4 3b 10 8c 9b 3b
       0.025847146 0.028633248 0.0050147497 0.0047469214
0001a0 3d 22 4d 3d 4d cf 0c bc 71 61 64 3d 7c af be 3d
       0.05008148 -0.008594346 0.05575699 0.09310815
0001b0 fd 3d 93 3b 31 ae 20 3d e1 73 1e bc 59 f0 31 3d
       0.0044934736 0.039228622 -0.009671182 0.043442104
0001c0 aa 7f 34 bd 94 ed 0f 3d 82 1f 03 3e 51 af 0e 3d
       -0.044067062 0.03513868 0.12804988 0.034835164
0001d0 83 6a c4 39 d9 c5 e8 bc b8 02 f3 3c 41 5b 8d 3c
       0.0003746339 -0.028414654 0.029664382 0.017255427
0001e0 2e e5 6d 3d 3a 5c e6 3b 96 26 53 3d e0 07 b9 3c
       0.05807989 0.007030037 0.05155047 0.022586763
0001f0 9e 74 be 3c 74 be a0 3b 9e 7f b6 3a 0f 48 6b bb
       0.023248967 0.0049055163 0.0013923531 -0.0035901105
000200 ed 36 4c 3c fe 29 bf bb b3 6d ce 3c f8 58 a1 3c
       0.012464267 -0.0058338633 0.025198793 0.019695744
000210 46 8d a8 3d d4 c9 08 3c 09 97 e7 3c 8c 82 87 3d
       0.08230071 0.008348901 0.028270261 0.06616697
000220 07 f8 0b 3d 6b c5 df bd 24 aa 5d 3d ad cc bc bc
       0.034172084 -0.10926326 0.054117337 -0.023046816
000230 ff ea f6 3c 19 2a 72 3d 83 83 59 3d b4 78 18 3d
       0.030141352 0.05912218 0.053103935 0.037224486
000240 66 e3 63 3c 19 a9 38 bb 73 80 12 3d 64 09 61 3d
       0.0139091965 -0.0028176962 0.03576703 0.054940596
000250 36 23 5d 3c 85 96 08 3d
       0.0134971645 0.03334667

ip2.weight f4 [50, 150]
000000 fd da 28 bd d1 70 8e bd 50 08 34 bc 64 ef 82 bd
       -0.04122447 -0.06955112 -0.01098831 -0.063933164
000010 60 88 bb 3e 0f 58 87 3e 6f 1a f3 be ff 43 34 3b
       0.36627483 0.2643437 -0.47481105 0.002750635
000020 f9 ee 53 bd 0e 0b 87 bd 52 dc 22 be fe 6c 84 3d
       -0.051741574 -0.065939054 -0.15904358 0.06466101
000030 e5 12 2a bc 97 e8 93 3c 88 aa 33 bd 16 42 fb 3a
       -0.010380481 0.018055243 -0.043863803 0.0019169475
000040 1e 34 7e bd 0b 0e 9f be 35 1e 03 bd f1 e2 75 bd
       -0.06206142 -0.310654 -0.03201123 -0.06003088
000050 33 94 4f bd 25 0e 9e 3e 00 9b 1d bd e0 03 87 bd
       -0.050678443 0.30870166 -0.038477898 -0.06592536
000060 9e 09 d4 bd 80 aa 2f be d7 6b 95 be 18 bc 23 bd
       -0.10353397 -0.17154884 -0.29183838 -0.039974302
000070 f1 b5 5d bc cb 46 99 3c e9 b2 90 3b 19 0b a2 3c
       -0.013532148 0.018710515 0.004415859 0.019780682
000080 5b c1 02 be ba c6 4a be 82 c5 1d 3d c0 f8 ae 3e
       -0.12769072 -0.1980237 0.038518436 0.34174156
000090 70 f5 3a 3d c3 d8 e1 bd 13 7b c0 3c 23 3c 5f be
       0.045644224 -0.11027672 0.023496186 -0.21800284
0000a0 54 45 58 bd 3f 0e 6f bd 50 48 16 be 36 c8 33 bd
       -0.05280049 -0.058363196 -0.14676023 -0.043892108
0000b0 bb fe 86 3e 45 e8 ca be ab 36 8a 3d 51 27 93 bc
       0.2636622 -0.39630333 0.06748708 -0.017963083
0000c0 f0 90 55 3d 85 f5 66 bc 28 8d 9a bd 69 32 a7 3d
       0.052140176 -0.014096622 -0.07546455 0.08163912
0000d0 ad 7c cf bc c3 85 af 3d 16 3c d0 3c f1 0c 9e bb
       -0.025328005 0.08570435 0.025419276 -0.00482332
0000e0 bb cf 9b 3d f6 1b d9 bd 5c d7 1c 3d d2 39 40 bd
       0.07607981 -0.10601036 0.03829132 -0.04693014
0000f0 19 9a 99 bc 32 83 46 3d a5 f4 e9 bc dd 14 3b 3d
       -0.018750237 0.04846496 -0.028559038 0.045674194
000100 09 36 b7 bd 42 8c a3 bd c1 8b 3e be 5e 4b 19 bc
       -0.08945853 -0.079857364 -0.18608 -0.009356348
000110 28 e7 f8 bc 83 e5 a7 3d 59 d4 79 bd ef d2 40 be
       -0.030383661 0.08198073 -0.060993526 -0.18830465
000120 b0 3c 67 bd 1f 7d d0 3c 11 cb 9e be da da f1 bb
       -0.05645436 0.025450287 -0.31014302 -0.0073808255
000130 06 7b f1 3c e8 4e cd 39 67 4c 98 bd 2f b9 25 3d
       0.029477607 0.00039159437 -0.074364476 0.040459808
000140 52 a8 8b bd 17 43 b8 bc 1b 18 73 be f6 75 a4 bd
       -0.06819214 -0.022492928 -0.23739664 -0.08030312
000150 9d 79 c4 bb 5d 2d 6c be 31 0a a9 3e b8 c1 4c bd
       -0.0059959427 -0.2306418 0.33015588 -0.049989432
000160 0c fc 6e bd 1c 70 a9 bc eb 8a 2a bd bc be fb bd
       -0.05834584 -0.02068334 -0.04163639 -0.12292239
000170 e0 a7 71 3c c5 d0 18 bb f9 1e 93 bd 86 56 e9 bc
       0.014749497 -0.0023317796 -0.07183642 -0.02848364
000180 ee 7f 21 be 7b 37 97 bd 3e 79 5e be de 88 89 bc
       -0.15771458 -0.07383629 -0.21725938 -0.016788896
000190 ff 9d 2d 3c 6d 78 c8 3d 72 4b c6 bc e3 e3 c1 bd
       0.010596751 0.097885944 -0.024205897 -0.09467294
0001a0 ed 0c 27 bd be 58 0a 3d bc d4 cc bc 32 00 40 be
       -0.04078381 0.033776037 -0.025003783 -0.18750075
0001b0 b7 14 97 be 68 fc 76 be c0 6f 6f 3e 4b a6 6e bd
       -0.29507992 -0.24119723 0.23382473 -0.058264058
0001c0 d3 4d 0f bd b2 32 e7 3c 02 70 eb bd 3f 05 88 3d
       -0.03498633 0.028222416 -0.11495973 0.066416256
0001d0 3f 9d 66 be 36 80 89 bd 87 01 45 3e c8 12 a3 bc
       -0.22520922 -0.067139074 0.19238864 -0.019906417
0001e0 69 04 5a ba b9 8f 28 3c c8 64 71 bc 1f 55 7a 3e
       -0.0008316697 0.010288172 -0.014733501 0.24446534
0001f0 55 e9 eb bd e4 fa 09 be 60 df 8f 3c 6e ae f9 bd
       -0.11519114 -0.13474613 0.017562568 -0.12191473
000200 17 10 7f bd 7c 9e 15 bd 77 7c 9d bc 24 48 5a be
       -0.062271204 -0.036528096 -0.019224389 -0.21316582
000210 b5 a8 66 3d ea e9 23 bd ec e7 45 be dd c4 1f be
       0.056313235 -0.040018 -0.19326752 -0.15602441
000220 13 c8 c9 bd a3 10 35 bf f4 da 02 be e9 ec 38 bd
       -0.09852614 -0.7072851 -0.12778836 -0.04514781
000230 e6 c6 a0 bc 92 15 18 bd 87 77 48 be b3 15 14 bc
       -0.019626092 -0.037129946 -0.19576846 -0.009038377
000240 b6 74 bf bd 10 80 22 be fe 2b 82 bd 3b d7 35 bc
       -0.09348433 -0.15869164 -0.06356047 -0.011098678
000250 df 08 72 bd 8d e9 88 bd 48 e9 bc 3e 80 03 d9 3c
       -0.05909049 -0.06685171 0.3689673 0.026490927
000260 fa af 98 bd 80 af 70 bd 00 9e b9 bd 61 f5 a4 bd
       -0.0745544 -0.05876112 -0.09063339 -0.08054615
000270 60 80 c6 bb 8a 3f d6 3d 42 4c 66 bd 0b f7 b1 3d
       -0.006057784 0.10461338 -0.05622507 0.08689698
000280 fe 5a da bc 8d 01 97 be bf 59 41 bc 26 93 d5 bd
       -0.026654717 -0.2949337 -0.011801182 -0.10428457
000290 d3 24 ca 3e 7c 2f da bd f7 76 99 3b 3e 0f 27 3e
       0.3948122 -0.10653588 0.004683371 0.16314408
0002a0 3d 7f 2d 3d 89 97 b9 bd 33 23 3e 3b 97 df 32 be
       0.042357672 -0.09062106 0.002901268 -0.17468105
0002b0 78 2e 98 3c 33 0a c1 3e 12 c3 0b 3e b9 f1 a7 bc
       0.018576846 0.37703094 0.13648632 -0.020501005
0002c0 33 9b ad bd c4 23 90 bd 49 13 26 3c cd a9 4f bd
       -0.084768675 -0.07038072 0.010136434 -0.050699044
0002d0 d4 23 c3 bd 23 23 2e bd 39 b9 0f 3e b3 19 63 be
       -0.09528318 -0.042513978 0.140355 -0.22177772
0002e0 7f c8 ef bc 83 c0 6e be fd 8f 91 3b 62 65 6a bd
       -0.029270409 -0.23315625 0.0044422136 -0.057225592
0002f0 80 a3 22 3f 12 52 19 bd 7f 2b ad bd 41 19 0a 3e
       0.6353073 -0.037431784 -0.08455562 0.13486196
000300 15 84 21 be cb 20 0b 3e 5a 33 c4 3d a6 7e 48 bd
       -0.15773042 0.13586728 0.09580107 -0.048948906
000310 f6 34 8d be df 96 06 bb 50 8d 3a be e7 4e 2e bd
       -0.27579468 -0.0020536704 -0.18217969 -0.042555716
000320 30 b6 e4 bd 53 b2 b4 3b f9 5e 02 be a4 cc 93 be
       -0.11167562 0.005514422 -0.12731542 -0.28867066
000330 55 c9 3e bd 18 49 80 3d f2 ea fd 3c 38 f1 f1 be
       -0.046578724 0.062639415 0.03099582 -0.47254348
000340 37 5c d7 3d a0 75 0d 3e 08 fe 75 be f4 e6 4c be
       0.105156355 0.13814402 -0.24022686 -0.20009977
000350 8c 47 db bd 85 03 b5 3b 39 c1 76 3e da 30 46 3d
       -0.10707006 0.005524101 0.24097146 0.048386432
000360 51 b9 19 bc 8d d7 91 3e 3d 7a 4a bc 9f 79 bd 3d
       -0.009382562 0.28484765 -0.012358245 0.09251713
000370 4f 6e ac be 49 f4 8d be f2 9f 48 bd de 42 04 3e
       -0.3367791 -0.27725437 -0.04898066 0.12916133
000380 30 fb 53 be 02 a4 8a bc db 91 4b 3d 6d d4 3a ba
       -0.20701289 -0.016923908 0.049699645 -0.0007126991
000390 bd 93 be bd df b8 de bd 42 52 f7 bd 51 37 fe 3c
       -0.093055226 -0.10875105 -0.12076236 0.031032236
0003a0 e7 b7 91 bc df 98 40 3d 9d e6 91 bd e0 9f 02 bc
       -0.017787887 0.04702079 -0.07124064 -0.0079726875
0003b0 6e b2 5b 3e 96 59 b1 bd ea 32 22 be ef 36 62 3e
       0.21454784 -0.08659665 -0.15839735 0.22091268
0003c0 71 cd e6 3d 27 82 4e be 94 c3 be 3c 6d 9d aa bd
       0.112696536 -0.20166837 0.023286618 -0.08330808
0003d0 e6 95 5b 3d ed aa 10 be 57 7c 11 be b3 98 80 3d
       0.05360975 -0.14127703 -0.14207588 0.06279125
0003e0 0c ef 79 3d 25 fa 1a 3d d1 2e 23 bc 6f f8 18 3d
       0.06101899 0.037836213 -0.009959892 0.0373463
0003f0 f3 c6 26 3f bc 01 ea bd c4 69 b4 bc 18 4b fe be
       0.6514732 -0.11426112 -0.02202309 -0.49666667

ip2.bias f4 [50]
000000 d1 70 8e bd 80 03 d9 3c fa 7a 98 3d a1 10 fa bc
       -0.06955112 0.026490927 0.07445331 -0.030525507
000010 4f b8 f0 bd 81 0a 0f 3c 65 5a 43 be d1 9a 11 be
       -0.11753904 0.008730532 -0.19077452 -0.14219214
000020 3b 9a da bd 6c 1a 96 bd 4c 30 3b bd 4d 38 2a be
       -0.106739484 -0.07329258 -0.045700356 -0.1662304
000030 2e ca a6 be 7b cd 47 bd e4 88 c3 bb bd 63 d8 3c
       -0.32576126 -0.048779946 -0.0059672464 0.026414746
000040 4f 86 9e 3d 03 d2 7e bc 07 86 f6 bd 94 50 2a bd
       0.07740461 -0.015553 -0.120372824 -0.04158075
000050 b0 0b cc 3d 54 1b a4 bd 0e 68 ec bc a8 29 69 bd
       0.09963167 -0.08013025 -0.02885821 -0.056924492
000060 a9 6a 31 bc cd eb 33 3c 6d dc 26 be bd 07 c5 bd
       -0.010828652 0.010981512 -0.16295023 -0.096206166
000070 e7 19 55 be 34 ff 96 3c e1 d2 b6 bd 2d ea 5c be
       -0.20810662 0.018432237 -0.08926941 -0.21573706
000080 8b 12 85 bd 2e b2 50 b9 a5 3e 91 be 83 af f4 bc
       -0.064976774 -0.00019902803 -0.28368106 -0.029868847
000090 e5 2e ed bd ca e0 0d be 41 bc 02 bd a7 5d 5c bd
       -0.1158121 -0.13855281 -0.031917814 -0.05380025
0000a0 2a 1d 28 bd b1 7a 59 bb 55 75 8a bd 57 32 a1 bc
       -0.041043438 -0.0033184702 -0.067606606 -0.019677324
0000b0 b2 57 14 bc 49 4f 85 bc 8e 52 88 3c 58 48 4d be
       -0.009054111 -0.016273158 0.016640928 -0.20047128
0000c0 3a ae 3f bd c2 f6 88 be
       -0.046797015 -0.2675076

ip3.weight f4 [10, 50]
000000 7f 8e 85 be db fb 15 3e 3f 2f c7 bd 2e d7 49 bf
       -0.26085278 0.14646856 -0.09725808 -0.78843963
000010 0d df 12 3f f5 c2 8a 3f 5d d4 50 be b1 4e 4d bf
       0.573716 1.0840746 -0.2039351 -0.801982
000020 7e e8 80 3e 0a 60 a5 bf d0 98 94 3e 50 70 09 3e
       0.25177377 -1.2919934 0.29022837 0.1342175
000030 4a a6 53 be 0d 60 2c 3c 77 13 d0 bf 5d af 4e bd
       -0.20668903 0.010520947 -1.625594 -0.05046021
000040 86 3f 1b 3f 8d c2 18 3d 24 f9 02 bf 55 19 89 bf
       0.60643804 0.037294913 -0.5116141 -1.0710856
000050 44 2b b0 be c3 f4 89 3f eb f9 7c bd 7c 33 7f 3e
       -0.3440801 1.077782 -0.061761778 0.24921983
000060 c6 b2 85 be d9 38 99 be 62 28 43 3e 6f 2c f0 3e
       -0.26112956 -0.29926184 0.19058374 0.469089
000070 a4 10 a6 bd ce 09 05 be 30 6b c1 bd c8 be ed 3d
       -0.08108643 -0.12992021 -0.094442725 0.11608654
000080 04 ab 2e 3f cf 07 bf 3e d6 f7 01 bf 12 48 0f 3f
       0.682297 0.37310645 -0.5076879 0.55969346
000090 7d 96 b3 3e 1e c8 ed 3e 3b 9d 7a be 71 b8 cc be
       0.3507575 0.4644174 -0.24474041 -0.39984468
0000a0 6e 30 23 bf 4e d2 23 be f9 02 b9 3e ed 74 47 be
       -0.6374577 -0.15998194 0.3613508 -0.19478197
0000b0 0c 6c 15 3f 93 ea b6 3f f1 21 9f bf e9 47 00 be
       0.5836799 1.4290336 -1.2432233 -0.12527432
0000c0 c1 db 8f bf e4 27 a5 be 91 b4 d8 be 6c 93 8a 3e
       -1.1238939 -0.32256997 -0.4232526 0.270656
0000d0 db b6 99 bd ea 6c d2 bd 8d 15 2c 3f 52 34 46 bf
       -0.0750558 -0.1027468 0.67220384 -0.77423584
0000e0 9c 94 b2 bd 2f 87 c8 3f b6 2d ee be ff 2f e7 be
       -0.08719751 1.5666255 -0.4651925 -0.45153806
0000f0 74 7a 28 3f 8e 21 f1 be 62 1e 96 bd 37 6b 1a be
       0.6581185 -0.47095913 -0.07330014 -0.15079962
000100 ba af 0e 3f 4a e6 20 be 7a 8b cb be 42 8b 01 be
       0.5573689 -0.15712848 -0.3975485 -0.12650779
000110 72 0b 0d be be c9 13 3e 16 fa 50 be db cd 89 be
       -0.13773897 0.14432427 -0.204079 -0.26914868
000120 8f 45 5f 3f d8 8a f5 bd bd af fe 3e a5 8e cc bf
       0.87215513 -0.11989373 0.49743453 -1.5981032
000130 8e 13 ec be 66 ee 5a be 10 e6 76 be 45 f8 9d be
       -0.4610867 -0.21380004 -0.241112 -0.30853477
000140 6f b2 bc be ae 7e 1d be 32 33 0f 3f c3 32 a4 bd
       -0.36854884 -0.15380356 0.5593749 -0.080174945
000150 20 af ea 3e bf 30 59 3f dc cd 9d 3e ab 45 46 3e
       0.45836735 0.84840006 0.3082112 0.19362514
000160 39 43 2b be 62 c1 89 bd fd 22 37 bf 5d 38 02 be
       -0.16724862 -0.06726338 -0.7153776 -0.12716813
000170 ec ee 76 be e7 3f 35 be 1e a3 d7 3c e5 c2 8f 3f
       -0.24114579 -0.17700158 0.026322898 1.1231352
000180 ee 10 a2 3e 2d cf c2 bd a8 cc 11 bf 21 69 c9 be
       0.3165354 -0.09512172 -0.56952906 -0.3933802
000190 98 42 f5 be d8 de fa be 3f 02 48 be 78 3b 09 3f
       -0.4790237 -0.4899814 -0.19532107 0.5360637
0001a0 93 1b b4 be b0 b6 4d 3f 24 76 fb bd 4d ba 3e bf
       -0.35177287 0.80356884 -0.12278393 -0.7450302
0001b0 3e 02 71 3e d0 a4 88 bd ff e0 83 be 7c dd a0 3d
       0.23536012 -0.066720605 -0.25757596 0.07854745
0001c0 d4 f7 a0 be 39 7b ed 3d 68 57 a3 be fb 8c bd 3e
       -0.31439078 0.115957685 -0.31902623 0.37021622
0001d0 bd d2 34 3e f1 e3 80 be cd ea 20 3f 4e f9 bd be
       0.17658515 -0.25173905 0.6285828 -0.37104267
0001e0 c1 08 a0 be 1e 05 45 3c 5e 09 b4 3f 23 65 86 bf
       -0.3125668 0.012025146 1.4065359 -1.0499614
0001f0 10 64 3a 3e fd f2 08 40 ca 1c 0a bf bf f0 da be
       0.18202233 2.1398308 -0.5395018 -0.427618
000200 3d 81 c6 3e 2d 2e 3e bf 70 a2 af 3f f7 25 76 be
       0.38770476 -0.7428921 1.3721447 -0.2403792
000210 f5 3c 09 bf d7 f4 8e be be e4 d1 3d 9b 46 2b 3d
       -0.5360864 -0.27921173 0.10248707 0.04181538
000220 21 4e d3 be 7c 92 fc 3e 7f cb af 3e 17 11 2c 3f
       -0.41270545 0.4933051 0.34334943 0.6721358
000230 e1 fa b0 be e5 65 f5 bd c2 71 69 be 6d e3 f5 3e
       -0.34566405 -0.119823255 -0.22797301 0.48025075
000240 23 24 e3 bd 7d dd bf be a9 a8 e7 bd 28 0a ee 3e
       -0.11090877 -0.3747367 -0.11311466 0.46492124
000250 3b 2b b3 3f 68 5d 4a bf 2d 75 2c 3f 2d a4 04 bf
       1.3997568 -0.79048777 0.67366296 -0.5181301
000260 3d f7 ab bd 12 1b b7 be a0 51 68 3e c9 25 87 be
       -0.08396766 -0.3576284 0.22687387 -0.26396015
000270 64 3c c4 3c b1 d5 df 3e 96 10 28 bf 3d 59 fc 3f
       0.023954578 0.4371772 -0.6565031 1.9714733
000280 4b 64 38 3e 38 d0 21 bf 04 48 6f be fb 4f 6a 3d
       0.18007009 -0.6320834 -0.23367316 0.05720518
000290 39 47 8d bf 4d 2f 84 be bc cb 50 3e 01 dd 14 be
       -1.103736 -0.25817338 0.20390218 -0.14537431
0002a0 48 05 a6 be 9d 25 27 3f 29 55 2a be 45 0d d9 bd
       -0.32425904 0.6529177 -0.16634049 -0.10598234
0002b0 e6 fb 86 bf 24 e3 28 be 78 9c 7c bd 11 d7 df 3f
       -1.0545623 -0.16492897 -0.061672658 1.7487508
0002c0 a9 98 8d be 9c 0e 19 bd d2 6d ec bd 73 bf c0 3d
       -0.27655533 -0.03736745 -0.11544384 0.09411516
0002d0 50 ae b9 be d6 4c 4c be cc 14 2e 3f ef ff 8f 3e
       -0.36265802 -0.19951186 0.68000484 0.2812495
0002e0 bb ee 53 3e 52 9e 43 3d 2e 83 a8 3e ec 05 06 be
       0.20696537 0.047758408 0.32912582 -0.13088197
0002f0 1d e0 bc be 96 d3 f7 be ea 40 25 bf 0c c1 0d 3f
       -0.36889735 -0.48403615 -0.64552176 0.5537269
000300 ed 6b 08 bd 10 37 11 3f 3c a4 74 3d 9a fe a9 bb
       -0.03330605 0.56724644 0.05972694 -0.0051878216
000310 31 cc 91 3f 12 3d 8e be df 8b ee 3d 13 c1 e0 be
       1.1390439 -0.27780968 0.11647772 -0.43897304
000320 c5 af 00 3e 41 74 5c 3f 9c e1 5f be 90 f5 82 3e
       0.12567051 0.8611489 -0.21863407 0.25577974
000330 3e f2 f3 3d de 33 cd 3e 3a 8a 92 bd c6 84 1c 3f
       0.119114384 0.40078634 -0.07155271 0.61140096
000340 44 89 2c 3e 42 ea 0b 40 23 1e 0b be f0 74 7f be
       0.16849238 2.186173 -0.13585715 -0.24946952
000350 6c ce 54 be 1a 23 01 bc 85 09 41 3f 7f 2f 06 3f
       -0.20781869 -0.007881904 0.7540515 0.52416223
000360 34 e0 1f bd 08 da fb bd f9 f2 49 be e7 6c 98 3f
       -0.039032176 -0.122974455 -0.19721593 1.1908234
000370 5a 85 a4 be 74 6f 15 3f b3 64 ec 3d 52 86 1c 3f
       -0.3213299 0.5837319 0.11542644 0.61142457
000380 ff 72 83 3e c8 15 dc 3f be da 98 3e 15 88 93 bd
       0.25673673 1.7194147 0.29854387 -0.0720369
000390 c9 63 51 be ef 24 0e bf 25 e2 5c bf 7d 5f 5f 3c
       -0.20448221 -0.55525106 -0.8628257 0.013633606
0003a0 60 13 26 be 3e 71 5c 3f 75 ef cc be 85 f1 d3 3e
       -0.16218328 0.86110294 -0.4002644 0.41395202
0003b0 03 19 8c be b2 33 8a be dc cd 0f 3f 8b 3a b7 be
       -0.27362832 -0.26992565 0.5617349 -0.35786852
0003c0 fa dc 06 bf 75 78 02 3f 77 5d 1c 3e 9f d3 89 bd
       -0.52680933 0.5096505 0.15270029 -0.06729817
0003d0 26 a5 88 be c5 ae be bf 46 4b b7 3c 63 48 c8 3e
       -0.26688498 -1.4897085 0.02237476 0.39117727
0003e0 69 d1 ac 3f 92 ba 66 be 9c f7 0b 3e bb 74 f7 bd
       1.3501407 -0.22532108 0.13668674 -0.120828114
0003f0 e3 a3 20 3f 7a a3 60 be 94 a5 57 3e 8d 3a 45 be
       0.6275007 -0.21937361 0.21059257 -0.19260617

ip3.bias f4 [10]
000000 c4 60 11 3f 78 9d 31 bf db f9 fb 3e 7b f8 06 3f
       0.5678828 -0.69380903 0.49214062 0.527229
000010 cc 80 03 3f 60 b4 55 bf 0a ae 42 3f 67 4d da bd
       0.51368403 -0.83478355 0.7604681 -0.106592946
000020 d9 56 98 be 51 78 5b bf
       -0.2975376 -0.85730463
